fonu.tflite (tflite, 206976 bytes, 9 tensors)

arith.constant f4 [1, 32]
000000 24 a2 18 3e 46 ad 91 be 30 13 20 3e 4c 16 b5 be
       0.14905602 -0.2845251 0.1563232 -0.35368574
000010 3d 33 ad be 4f 30 02 3e 69 08 9a bd c4 2b a1 bc
       -0.33828154 0.12713741 -0.07521135 -0.01967419
000020 f7 cf 1d 3e 83 65 cd 3d b9 82 af be af c9 fd 3d
       0.15411364 0.100291274 -0.3427942 0.12391984
000030 66 c2 e0 3d d7 7e 2d 3e eb 52 76 3d 53 d4 27 3d
       0.109745786 0.16942917 0.06013767 0.040973973
000040 59 95 76 3d ad 4c 1a bd 9d a0 3f 3e 52 9c 9e 3d
       0.060201023 -0.03767078 0.18713613 0.077446595
000050 b4 ca ac be d1 eb a5 be 32 80 a4 be 44 85 a4 be
       -0.337484 -0.32406476 -0.32129055 -0.32132924
000060 b3 9d 64 bc 3c 8e c0 be 38 78 54 3e b1 cb 73 3d
       -0.013953614 -0.37608516 0.20748985 0.059520427
000070 52 be c6 3d 73 72 e5 bb 7d 78 86 3d ce 45 ad 3b
       0.097042695 -0.007002169 0.0656595 0.0052878624

arith.constant1 f4 [32, 32]
000000 ee cc fd 3d ed f8 f2 3b e0 2c 19 be b7 14 d4 3d
       0.12392603 0.007414928 -0.14958525 0.103555135
000010 97 31 c5 bd 63 fa e4 3d 53 9f ff bd c7 d4 12 bd
       -0.09628599 0.1118057 -0.124815606 -0.03584745
000020 5f 26 45 bd 1b 43 6f 3d b2 82 18 3b 3c 74 61 3c
       -0.048132297 0.058413606 0.002327126 0.013760623
000030 b4 6b 13 bd 96 37 45 bd 73 52 02 bc a1 0c e9 bd
       -0.035991386 -0.048148714 -0.007954228 -0.11379362
000040 20 3c 09 3e 1d 16 08 3d 28 54 7f 3d a3 78 d4 3c
       0.13401842 0.033224214 0.062336117 0.02593643
000050 79 28 20 3e 8f 5a 32 3e 93 aa e2 bd 44 01 f2 bc
       0.15640439 0.17417358 -0.11067691 -0.02954162
000060 9a 48 14 bc 07 39 8a bc 80 02 2a bd 1d 6e 1f be
       -0.009050513 -0.016872896 -0.04150629 -0.15569349
000070 98 1b 7c bd d2 df b9 bd d7 59 01 3e 56 27 ac bb
       -0.061549753 -0.090758935 0.12631927 -0.0052537126
000080 d8 c6 ff bc 57 6f 1b 3e 84 2d 66 3c b8 14 ab bd
       -0.031222746 0.15179192 0.014048938 -0.08353561
000090 27 8d a1 3d cf 0a fa bd 3a 61 43 3d fc 04 03 3e
       0.07888251 -0.12209093 0.047700144 0.1279487
0000a0 38 9b 8c 3d 09 ae cf bd 12 46 b8 bd ba 82 33 3e
       0.06865543 -0.101406164 -0.0899774 0.17530337
0000b0 32 6b 9b bb c2 b9 ba bd 09 7f 1e 3d 89 a5 e3 bc
       -0.0047430033 -0.09117462 0.03869537 -0.027788894
0000c0 8d c3 21 bd bc 37 ab bd 69 71 64 bd 21 2f 28 bd
       -0.039493132 -0.0836024 -0.05577222 -0.04106057
0000d0 ab 95 2a bc 8f 4c 37 bd 0c 49 8e bc 62 b4 6f bd
       -0.01041166 -0.044750746 -0.017368816 -0.058521636
0000e0 08 c4 be bd 43 58 c0 bd 5a d8 d0 3c 40 a0 c9 bd
       -0.09314734 -0.093918346 0.02549379 -0.098450184
0000f0 cd 03 25 3e 91 7b 1d 3d 88 b5 fa 3d e7 62 dd bd
       0.16114731 0.03844792 0.122416556 -0.1080988
000100 34 d8 2f 3d 4a 5e 75 3d 47 b8 be bc 6a 83 05 bd
       0.042930797 0.059904374 -0.02328123 -0.03259603
000110 49 19 41 3d 7e ba 35 3e b6 71 90 3d 78 33 d5 bb
       0.047143254 0.17746922 0.07052939 -0.0065063797
000120 eb 66 a0 bc a8 9d 5a bd 35 e7 07 be 7e 48 8e bd
       -0.019580325 -0.05337301 -0.13271792 -0.069474205
000130 ad 86 e3 bc 78 d6 c1 bd d5 a3 fd 3d ae 13 94 3d
       -0.02777418 -0.09464735 0.12384764 0.07230316
000140 67 b3 21 be 9e 98 64 3d 87 e9 ab 3d f7 a2 0f 3e
       -0.15791093 0.05580961 0.08394151 0.1402701
000150 41 04 82 3b ad 9e cf 3c 77 0a 23 be cb 3b 6a 3d
       0.0039677923 0.025344217 -0.15921961 0.05718593
000160 69 07 96 3d ba 3a 09 be e0 f8 fd bc 93 d2 9e 3d
       0.07325632 -0.13401309 -0.031002462 0.077550076
000170 05 53 90 3d ca 23 51 be 0b b5 fe 3d 97 63 08 be
       0.07047085 -0.20423809 0.12436875 -0.1331924
000180 99 56 ad bd ac be 53 3e 3c af b3 3d e4 3f c8 bc
       -0.08463783 0.20678204 0.08773658 -0.024444528
000190 63 5a 1c 3d 6c ce 03 be ad c4 12 be bd 75 4a bd
       0.038172137 -0.12871712 -0.14332838 -0.04942869
0001a0 4f ad c6 3d 14 3d 4c bd 5c f4 1c bd 0b db c5 3c
       0.09701025 -0.049862936 -0.038318977 0.0241523
0001b0 e9 57 9c 3d 7b 29 2d bd d6 57 00 be fb 63 e0 bd
       0.07633955 -0.042275887 -0.12533507 -0.1095657
0001c0 e6 ed 0b bd 62 e2 c5 3c c3 ac fe bd 82 aa 2b 3e
       -0.034162425 0.0241558 -0.124352954 0.16764262
0001d0 c8 20 d6 3c a3 1c 03 be af d3 b3 3a 10 73 0d 3d
       0.026138678 -0.12803893 0.0013719703 0.03453356
0001e0 43 a9 29 be bf e9 5e bd 51 84 9d 3d 4c 0b d2 bc
       -0.16568474 -0.054422136 0.07691253 -0.025640152
0001f0 e5 cc 07 be d3 66 cc bd 84 8e 71 3c e4 7a b8 3d
       -0.13261755 -0.0998055 0.014743451 0.090078145
000200 55 a7 1d be 92 fd 98 3d ca 83 57 bc e0 7e cb 3b
       -0.15395863 0.0747024 -0.01315398 0.006210193
000210 f7 0c da 3d 0b 32 20 bc 3f 03 4d bc b4 56 c4 bd
       0.10647004 -0.009777556 -0.012512981 -0.0958685
000220 cc 46 19 bd 6d e4 12 be 66 f2 eb 3d 12 6e 20 bd
       -0.037421033 -0.1434495 0.11520843 -0.03916747
000230 5e 33 41 be 1d 00 e0 3d 0b 00 2d 3e c4 05 18 3e
       -0.18867251 0.109375216 0.16894548 0.1484595
000240 e8 88 ef 3d 94 6a 3f bd d8 9b 39 be 20 c3 09 3e
       0.11696035 -0.0467325 -0.18125856 0.1345334
000250 ee 58 a1 bc fd f8 11 be e0 9d 2e 3e c8 8c d7 3d
       -0.019695725 -0.14255138 0.17052412 0.10524899
000260 c0 16 8e bd dd 1b e4 bd 1d 0c 1a be 78 2d 4c 3d
       -0.06937933 -0.11138127 -0.15043683 0.04984805
000270 76 c9 17 3e 5c f7 61 3d 0f 47 7b bd 75 13 3a 3c
       0.14822945 0.05516754 -0.061347064 0.011357178
000280 9b e7 63 bd 0b 0a b3 bc e7 fe ab 3b 0c b6 7c bd
       -0.055640798 -0.021855375 0.0052488926 -0.06169705
000290 6d af 0a bb e3 a2 c3 3d 98 1c 88 3d 3d de 60 be
       -0.002116169 0.095525526 0.06646079 -0.21959777
0002a0 43 7a 0b 3e 1a a6 d8 bd cc 68 78 bd 86 3a 93 bb
       0.13620858 -0.10578556 -0.060646817 -0.0044930605
0002b0 7b cf cf bd c7 cb 9a 3c cf e4 4e bd 20 6c 69 bd
       -0.10146996 0.018895997 -0.050511178 -0.05698788
0002c0 65 5e 77 3d 7f 81 9f bd fb c4 d5 3d d3 de ca bd
       0.060392756 -0.07788371 0.10437962 -0.099057816
0002d0 e4 7f f3 3d e9 28 23 3d 2f c4 da 3d fe 7a 2c 3e
       0.118896276 0.039833937 0.1068195 0.16843793
0002e0 4e 3b ab 3d 52 96 20 be c3 6c 72 bd 50 2d 1e be
       0.08360921 -0.15682343 -0.059185755 -0.15446973
0002f0 93 b1 2f be 28 45 2c be e8 d1 ea 3d 8f d9 cb 3d
       -0.17157583 -0.16823256 0.11465818 0.099536054
000300 54 c5 10 bc 70 53 7e 3d e1 16 c0 bd 09 41 c7 bc
       -0.008836109 0.06209129 -0.09379364 -0.024323003
000310 b9 2a 84 bd 78 6e 58 3d 0a 78 8a bd a1 25 c4 bd
       -0.06453461 0.052839726 -0.06761177 -0.0957749
000320 e9 a5 51 bc e8 17 19 3e dd 94 01 be 62 42 a2 3d
       -0.012795904 0.14950526 -0.12654443 0.07922818
000330 51 e7 69 bc 79 b8 ec bd 77 4d 1e 3e 75 34 4a be
       -0.014276342 -0.11558623 0.15459238 -0.19746573
000340 14 43 aa 3d 6a 4e 10 3e 03 52 98 3d df 33 83 bd
       0.083135754 0.14092413 0.074375175 -0.06406378
000350 25 1a 0c be 71 b8 a6 3c af 8d 22 bd 93 d9 ab 3d
       -0.13681848 0.02035162 -0.0396859 0.08391108
000360 09 05 18 3a 3a fc b9 bd 67 5e 1d be 51 98 1e 3e
       0.000579909 -0.090813115 -0.15368043 0.15487792
000370 8c 4a 27 be 81 73 87 bd 8e 2a 09 be c5 53 fa 3d
       -0.16337031 -0.066138275 -0.1339514 0.12223009
000380 a3 14 05 be 06 48 09 3d 5a 4c 17 bd cc 49 26 3e
       -0.12996154 0.033515953 -0.03693805 0.16239089
000390 b5 12 8e 3a f5 6d ab 3d df db 22 3e a4 1f c9 3c
       0.0010839315 0.08370582 0.15904187 0.02455122
0003a0 61 c5 2f bd e6 4d 21 be 7f 87 9c bb f6 ec d3 3d
       -0.042912845 -0.15752372 -0.0047768946 0.10347931
0003b0 a7 9a 3e bd fb de 73 bc f0 16 25 bd 1a 5b 0e be
       -0.046534207 -0.014884706 -0.040305078 -0.1390194
0003c0 90 25 ac bd dd 03 4f bd db 9d 11 bd 99 22 e4 bc
       -0.08405602 -0.050540794 -0.035550933 -0.027848529
0003d0 3e c0 af bd 26 de 81 3d 6e f4 e7 bc 6c 12 5b 3d
       -0.08581589 0.063411996 -0.028314795 0.053484365
0003e0 c2 14 3f 3d 83 2b 26 3e e8 ef fe bd 58 ba 14 3e
       0.046650656 0.16227536 -0.12448102 0.1452421
0003f0 83 91 e9 bd 86 b5 19 bd 34 87 dd bd 22 d1 2f 3e
       -0.11404707 -0.03752663 -0.108168036 0.17169622

arith.constant2 f4 [32, 1536]
000000 e0 1a 24 bc da 41 a0 39 ef 1d 56 3c 83 f7 74 3b
       -0.010016173 0.0003056664 0.01306866 0.0037378974
000010 4b d5 19 3c d8 fe 3e bb c9 fc 77 bb 5b 72 f8 bb
       0.009389232 -0.0029143598 -0.003783988 -0.0075819916
000020 ac 5b 26 bd cf 4c 2e bc 67 3f d4 bc 50 5e cb 3c
       -0.04061477 -0.01063843 -0.025909139 0.024825245
000030 d7 83 97 3b d7 6f 85 3c c4 93 8b bc fc c9 c3 bc
       0.004623871 0.016288681 -0.017038234 -0.023900025
000040 03 52 22 bc e7 32 f8 3c a7 40 d9 38 e5 23 b3 bc
       -0.009907248 0.03029771 0.00010359409 -0.021867702
000050 5f 02 cb bc 02 65 e3 3c e3 c1 b3 3c d0 05 0e 3c
       -0.024781404 0.027758125 0.021943038 0.008668378
000060 bd 35 9d 3c 9b c1 95 3b e0 6b 8b 3c da 78 68 3c
       0.019190663 0.0045701987 0.017019212 0.0141889695
000070 e9 5f a6 bb 8a 1a 13 bd 2c 62 c3 3c 95 ba c8 3a
       -0.0050773514 -0.03591398 0.023850523 0.0015314395
000080 e6 08 65 bb 4e 29 bd bc 3b 96 f1 bb 88 84 a6 3c
       -0.003494793 -0.023090985 -0.007372645 0.020326868
000090 47 0e 0e 3c 2c df 8c 3c 59 00 18 3c 34 e1 90 3c
       0.008670396 0.01719626 0.009277427 0.01768551
0000a0 f5 08 54 bc b5 2b cc 3c 71 8b 3a bc f9 b4 cd 3c
       -0.012941589 0.024923185 -0.0113857845 0.025110709
0000b0 92 28 4d bb 20 65 02 ba 1e 2b c2 3c db 43 84 bc
       -0.00313047 -0.0004974175 0.0237022 -0.016145637
0000c0 da 09 1c 3c 80 c5 02 3d 4a 90 a9 3c bc 5f 62 3b
       0.009523833 0.031926632 0.020698685 0.0034541925
0000d0 63 32 22 bc 78 73 28 3d 43 09 23 3c f6 7f 96 3c
       -0.009899708 0.041125745 0.009950939 0.018371563
0000e0 4c 17 0e bc dc 1d de bc 7d cc af 3c 14 03 88 3c
       -0.008672547 -0.027113847 0.021459812 0.01660303
0000f0 b1 90 87 bc 91 58 8b ba 05 da 26 3c 89 bc c9 bc
       -0.016548486 -0.0010631253 0.010183816 -0.024626033
000100 ef ec 43 3c ab 09 6b bc ac 29 11 3d e0 65 82 3c
       0.011958345 -0.014345567 0.035440132 0.015917718
000110 1b b5 08 3d 22 4b c1 bc 75 90 19 3d 99 eb ce 3b
       0.03337584 -0.023595396 0.03749128 0.0063147065
000120 7e 6e f5 3b 09 6a 8d 3c ca 35 f1 3c 71 2f 00 3c
       0.0074899783 0.017262476 0.029444594 0.007823811
000130 5a db 46 3c 98 d8 e0 bc ce fb 9d b9 0e c3 84 bc
       0.012137258 -0.02744703 -0.00030132983 -0.01620629
000140 db 31 5c 39 fc bb c7 bc ab d7 a3 3c d2 e1 05 3d
       0.00020999408 -0.02438163 0.0200003 0.032686062
000150 15 ab f5 3b 32 57 22 ba 81 64 b8 3c 11 92 05 3d
       0.007497201 -0.00061928027 0.022508861 0.032610003
000160 06 33 70 bc aa d3 c1 3c c7 0c 5b 3c 8e 27 8d bc
       -0.014660602 0.0236605 0.013369746 -0.017230775
000170 d6 5f cb 3b 0c 29 d8 bb 10 35 41 3a 66 de d1 bc
       0.006206493 -0.00659669 0.00073702727 -0.025618743
000180 ed 4e 8e 3c 5b 5d 20 bb 73 69 58 3c a7 8a ce bc
       0.01737162 -0.0024469707 0.013208735 -0.025212599
000190 93 6e f6 bb f1 0d 76 bc 4f 78 b9 3c 3b 46 dc 3c
       -0.0075205057 -0.015017972 0.022640375 0.026888957
0001a0 4b c4 48 bc e2 ea 02 bd 7d c7 f5 bc e6 e5 cb 3c
       -0.012253831 -0.031962283 -0.03000235 0.024889898
0001b0 2a 04 ef bb 78 b6 f8 ba d5 75 0b bc 63 4c b0 3a
       -0.0072941976 -0.0018975278 -0.00851198 0.0013450499
0001c0 8f 4f 2a bd f2 bd 70 bb 7e 23 f5 bb a7 38 93 3c
       -0.04157978 -0.003673431 -0.0074810376 0.01797135
0001d0 8d 9f d8 bc 99 15 0d 3c c4 05 0e bb 90 dd 38 bb
       -0.026443267 0.008611106 -0.0021670917 -0.0028208233
0001e0 0a 2c b1 3c 29 e2 33 3d ff f6 d6 3c 06 ba 76 bc
       0.021627445 0.043916855 0.026240824 -0.015059
0001f0 a0 e4 11 bc 2f b4 4c bc 4f b9 82 3c 80 c1 4f bc
       -0.008904606 -0.012494131 0.015957503 -0.012680411
000200 d6 e7 2a bb 73 51 f3 bc 48 9f 83 bb 6a 25 c4 bb
       -0.0026078126 -0.029701924 -0.0040167905 -0.0059859054
000210 64 97 f4 3a 47 ee f9 3b 2e e0 d4 3c 22 c8 7c 3c
       0.001866084 0.007627282 0.025985803 0.015428575
000220 a7 92 89 3c 1c dd ce 3c c0 a8 79 3c c5 b5 94 bc
       0.016793562 0.025251918 0.015237987 -0.01815308
000230 7b 81 f1 bc df b9 bb 3b 69 40 7e 3c e4 79 fb ba
       -0.029480686 0.0057289447 0.015518286 -0.0019186107
000240 13 d4 4d bc 25 7b 35 bc 0c 70 40 ba dd 4a 1a 3d
       -0.012562769 -0.011076723 -0.0007340915 0.03766905
000250 70 e6 53 bc 2c b9 05 3d e9 5b 16 3c db de e4 bb
       -0.012933359 0.032647297 0.0091771865 -0.0069845743
000260 f1 79 b2 bb 5d 43 3a bc 30 1e bb 3c 2e 7c d2 bc
       -0.0054466655 -0.0113686 0.022841543 -0.02569398
000270 1f 7f 1a 3d a7 e5 56 bb b9 cf 1f 3d 88 c2 9b bc
       0.03771889 -0.0032790692 0.03901646 -0.019013658
000280 aa cc 49 bc 80 24 c2 3c 27 b6 99 3c 06 c6 0d bc
       -0.012316862 0.023699045 0.018763615 -0.0086531695
000290 aa c9 1a 3c 22 29 a6 bc 2f f8 e6 b9 74 2c a9 bc
       0.0094474945 -0.020283286 -0.0004405393 -0.02065108
0002a0 cb 3c 89 3c b3 21 e2 3c fd e1 6d bc 74 16 cf bb
       0.016752621 0.02760396 -0.014519212 -0.0063198153
0002b0 d1 97 20 bc 7b 1b f8 3b 8d e9 d7 3c e1 ec 95 bc
       -0.009801821 0.0075716353 0.026356483 -0.01830143
0002c0 5d 71 7f bc c6 2d a7 3c 3b 8c be 3b 4f 53 6b 3b
       -0.015590993 0.020407569 0.0058150566 0.003590781
0002d0 7c 61 95 bb e0 e0 a9 bb ce d4 22 bc 46 12 2c bc
       -0.00455874 -0.005184278 -0.009938432 -0.010502404
0002e0 c0 51 d5 3c a1 28 5f 3c fe 65 25 3d 9d ae a9 bc
       0.026039958 0.0136205265 0.04038047 -0.020713145
0002f0 83 d1 99 3c e8 1e b4 3c 27 cc 89 3b 61 8a bc 39
       0.01877666 0.021987393 0.004205245 0.00035961255
000300 9c ce 08 3d 58 2a a4 b9 64 32 ac bb 3e 43 e4 bb
       0.033400163 -0.00031312066 -0.0052550305 -0.0069660237
000310 18 84 f8 3a 72 cc 86 bc 31 a8 db 3b 8d 4a 00 3c
       0.0018960265 -0.016454909 0.0067033996 0.007830274
000320 e8 84 1c bd a5 09 8b 3c 5e 5c 54 bc 3b ce b8 3c
       -0.038212687 0.016972372 -0.012961475 0.022559276
000330 8d f1 18 bc 3a 6d 0f 3c 92 8f 31 3b 4f 53 2d bb
       -0.009334934 0.008754069 0.0027093631 -0.002644736
000340 3e cc 37 bc 20 d5 4e bc 28 3f e5 b9 66 60 84 bc
       -0.011218129 -0.012624055 -0.0004372534 -0.016159248
000350 d1 26 20 3a f7 84 41 bc be e1 88 3c 04 7d c3 3c
       0.00061093 -0.011811486 0.016709205 0.023863323
000360 d5 b1 ec 3b 24 4c fd 3c c8 94 14 3c 9a b0 52 bb
       0.0072233477 0.030920096 0.009068675 -0.003214872
000370 cd aa 00 bb 9f be 44 bb af 12 19 bc e0 a4 10 3b
       -0.0019633055 -0.0030020846 -0.009342833 0.002207093
000380 7b ee 77 bc 7b e3 d8 3b 4b 02 eb bc f0 93 38 bc
       -0.015132542 0.0066189147 -0.028687617 -0.01126574
000390 bc 52 f5 ba 4a 84 02 3b 93 5c 16 3c 09 7f 99 bc
       -0.0018716673 0.0019915276 0.009177345 -0.018737333
0003a0 44 1f a7 bb 89 26 ba 3c 47 7b f2 3b 1d dd 85 bc
       -0.0051001627 0.022723453 0.0073999497 -0.016340787
0003b0 74 d9 b9 bc 00 07 4b bb 4b e8 4c 3c 3d 24 01 3b
       -0.022686698 -0.0030979514 0.012506555 0.0019705438
0003c0 74 47 ac bb 13 c2 f7 3c 3d 40 fc 3b ae ac 9e 3c
       -0.0052575413 0.030243909 0.0076980875 0.01936945
0003d0 84 39 5c bc e7 9f 1b 3d c7 ad 33 3c 9f 49 4d 3c
       -0.013441447 0.03799429 0.010966725 0.01252976
0003e0 04 54 da bb 81 85 06 bc 62 0c a6 ba 26 0d 53 3c
       -0.0066628475 -0.008210541 -0.0012668485 0.012881553
0003f0 40 0a 00 3d bc 88 96 3c cd 05 2d 3d ad b9 06 bc
       0.031259775 0.018375747 0.04224186 -0.0082229795

model_8/tf.__operators__.add/AddV2/y f4 [32]
000000 fb 40 81 3c fa 5d c4 3c 51 a7 99 3b af c3 24 ba
       0.015778055 0.023970593 0.004689135 -0.00062852626
000010 93 32 b3 36 a7 76 55 3c 05 92 b1 3c 63 67 8a 3a
       5.3405033e-06 0.013028777 0.021676073 0.0010559376
000020 f3 d4 6c bc 60 8a 35 bb 4f 78 b8 bb 38 a2 d4 3b
       -0.014455068 -0.0027700886 -0.0056295763 0.0064890645
000030 63 da 81 bb 27 fd 3c bc 8d d8 a6 bc f0 ca 8e 3a
       -0.0039628013 -0.011534966 -0.020366931 0.001089422
000040 c4 1f df 3c 4e e3 9a 3c bc 91 bd bc 15 eb c7 3b
       0.027236827 0.018907215 -0.02314078 0.006101022
000050 98 df 6a bb b9 ea 07 3c ff 55 15 3c 86 fa 9f bc
       -0.0035838839 0.008295708 0.009114741 -0.019528639
000060 74 45 bd 3b 66 bb 61 bc 08 fb 03 3c e9 32 26 bc
       0.0057761017 -0.013777589 0.008055456 -0.010143974
000070 6c eb 26 bb 3b fe a7 3c 0d 80 12 3a a9 3b 4f bc
       -0.0025469912 0.020506969 0.0005588539 -0.012648501

model_8/tf.__operators__.add_1/AddV2/y f4 [32]
000000 a9 2b 91 3d e8 9f 81 bd 73 58 71 3d a0 03 b0 3d
       0.07088406 -0.06329328 0.058922242 0.085944414
000010 8f 0a 06 be a6 f3 2c be 9f 70 8b bd 3a d7 a2 3d
       -0.13089965 -0.1688982 -0.0680859 0.079512075
000020 4e 57 1f 3e 4b 1b 68 bc 8f b1 ed bd ba ef a4 bd
       0.15560648 -0.014166663 -0.11606132 -0.08053537
000030 24 50 08 3e 3e 4c 01 be 41 0c 09 be 33 c7 c7 bd
       0.13311821 -0.1262674 -0.1338358 -0.09754791
000040 6c 0d 16 bc 94 09 6c 3d c0 ff 17 3e ce 0f 01 be
       -0.009158473 0.057626322 0.14843655 -0.12603685
000050 d1 f4 14 be 2c 6a 2b 3e 4f e8 d6 bd c5 f7 b0 bd
       -0.14546515 0.1673972 -0.10493528 -0.08641008
000060 94 5f 14 be 23 42 9e ba 8b 3d 0a be 7e bd db 3b
       -0.14489585 -0.0012074154 -0.1350004 0.006705939
000070 4c b2 23 be e5 f3 1b be 6c 0a 97 3b b9 63 30 be
       -0.15985984 -0.15229757 0.0046093967 -0.17225541

model_8/tf.math.add_2/Add/y f4 [1, 32]
000000 58 e3 3a bb c9 93 08 3d 32 25 57 bc da 1e 2b bc
       -0.0028516855 0.033344064 -0.013131427 -0.010444367
000010 9c a2 6d 3c 52 55 13 bb 3e 41 4e bb 22 76 91 3c
       0.014504101 -0.0022481275 -0.0031471993 0.017756525
000020 5e 3c ee 3c 63 bd a3 3c 07 64 cc 3b 88 9a 81 bc
       0.02908152 0.019987768 0.00623751 -0.015820757
000030 5a 4a 80 bc 4b 60 15 bc 0b 94 80 bc 3c 74 06 bd
       -0.015660454 -0.009117196 -0.015695592 -0.032825693
000040 7c 98 da 3c 06 cb 7e bc ed 13 46 3b 6c c0 3c 3c
       0.026684038 -0.015551334 0.003022428 0.011520486
000050 6d e6 8d 3b f1 30 1b 3b bb 32 a7 3c c7 a4 01 3d
       0.0043304474 0.0023680294 0.020409932 0.031651285
000060 81 c9 5e bc f7 21 a4 bb 28 0b f9 3b 31 1d 19 bc
       -0.013597847 -0.0050089317 0.007600207 -0.009345339
000070 45 9d 8a bc 6d 8f a3 3c 93 86 76 bc 28 4b 00 bd
       -0.016920695 0.019965852 -0.015046733 -0.031321675

model_8/tf.math.add_5/Add/y f4 [1, 32]
000000 89 88 01 3d 9f ab 06 3e 47 7f 0b 3c 0f 5f a8 3e
       0.03162435 0.13151406 0.008514232 0.32885024
000010 91 04 91 3e 3e 85 8e 3c d4 eb 8e bd 89 89 6e 3c
       0.28323796 0.01739752 -0.069785744 0.014559158
000020 78 93 88 3d 06 64 b0 bb 8c a5 95 3e 50 84 88 3c
       0.066687524 -0.0053830175 0.29227865 0.016664654
000030 b3 2d c2 3c 90 67 36 3d bc 21 2a ba 52 ac 4c bc
       0.023703432 0.04453236 -0.0006490012 -0.012492256
000040 04 5f 28 bc 1d 1b 47 3c 9a fe 4a 3d d9 fe b6 3b
       -0.01027656 0.01215246 0.049559213 0.0055845794
000050 75 90 86 3e 89 63 87 3e a2 23 93 3e 39 15 8d 3e
       0.26282087 0.26443127 0.28738123 0.27555254
000060 5c ff 30 bd 6e e3 80 3e fd 7c 31 3d d2 42 40 3c
       -0.04321228 0.25173515 0.04333209 0.011734681
000070 f0 72 3a 3d a2 9b f7 3b 32 65 66 bb 95 12 97 bb
       0.04551977 0.0075563947 -0.0035155532 -0.0046103694

model_8/tf.math.multiply_10/Mul/y f4 [1, 32]
000000 24 8c 7f 3f e8 e3 83 3f 66 a0 7f 3f 91 06 7e 3f
       0.9982321 1.0303926 0.99854124 0.9922877
000010 04 12 81 3f 6c 11 7e 3f d9 ac 7e 3f f8 e7 83 3f
       1.0083623 0.99245334 0.99482495 1.0305166
000020 d2 22 7b 3f 02 80 7f 3f fd f5 7d 3f 4f 86 7a 3f
       0.98100007 0.998047 0.99203473 0.9786119
000030 74 f4 7b 3f 24 b9 7d 3f ce 5e 7f 3f 86 a2 77 3f
       0.9841988 0.9911063 0.99754035 0.96732366
000040 c6 36 7d 3f 3d 7c 7e 3f 37 6d 87 3f ca 0e 7f 3f
       0.989117 0.9940832 1.0580205 0.9963194
000050 a5 86 81 3f e7 a2 80 3f c7 a4 7c 3f dc a4 82 3f
       1.0119215 1.0049714 0.9868893 1.0206561
000060 31 6a 7e 3f 5b c7 7e 3f 9a 0d 7f 3f a0 46 7c 3f
       0.99380785 0.9952294 0.9963013 0.98545265
000070 75 d7 7e 3f ed b1 80 3f 40 3a 7f 3f a2 74 7a 3f
       0.9954751 1.0054299 0.9969826 0.9783422

model_8/tf.math.multiply_22/Mul/y f4 [1, 32]
000000 46 6c 84 3f 75 83 91 3f 4a 7d 80 3f c2 ba b3 3f
       1.0345542 1.1368243 1.0038235 1.4041369
000010 08 16 a7 3f 0e 0c 8b 3f 95 e2 70 3f b5 c8 80 3f
       1.3053598 1.0863054 0.94095737 1.0061251
000020 44 79 88 3f e1 fc 7f 3f 64 ad a9 3f ae bf 82 3f
       1.0662007 0.9999524 1.325604 1.0214746
000030 9e ce 83 3f 0b 6c 87 3f 4b 3e 83 3f 22 ad 7d 3f
       1.029743 1.0579847 1.0253385 0.99092305
000040 04 22 80 3f 93 bb 7f 3f c7 81 8b 3f 1c f0 80 3f
       1.0010381 0.9989559 1.089898 1.0073276
000050 57 1c a0 3f 3b e2 9f 3f 3e 9f a6 3f b9 67 a3 3f
       1.2508649 1.2490915 1.3017347 1.2766029
000060 5d a6 79 3f a9 f1 9d 3f 3d de 8d 3f 65 9d 81 3f
       0.97519475 1.2339374 1.1083447 1.0126158
000070 de f9 86 3f 38 ec 80 3f 62 b6 7f 3f 2a 37 7d 3f
       1.0545003 1.0072088 0.9988767 0.989123
